models/best_inceptiontime_epa_classifier.pth (torch, 587705 bytes, 78 tensors)

blocks.0.inception_modules.0.bottleneck.weight f4 [32, 7, 1]
00000000: db61 083e 7e16 963d ab13 ad3e 483a c0bd
00000010: f57c 40be f3c3 d53d 5f20 c13d 6c68 223e
00000020: b533 6abd 00f8 613e 65bc b73e 04d7 01be
00000030: 67a8 583e f1ac d53d 690c 8d3d 7760 afbd
00000040: 8666 75be e8ba 613e 67b6 e63d 2b68 7cbe
00000050: b627 0f3e f749 0b3e eb4d 993d 17b9 61be
00000060: 17a0 9c39 4b71 abbe 13b0 823d eb1b af3e
00000070: 2ad1 163e 221a 5dbd 4d62 8cbe e02b b0be
00000080: 9469 a33e b95a 4c3e 3ca3 abbe 5ca2 b43d
00000090: 7f81 80bd 632c b5bd a5c0 113e 2c91 7bbe
000000a0: 1e30 993e bcdd 5fbe a2ca 3dbe 2822 bcbd
000000b0: 81c8 1d3e 4e4a 993e 9db5 353e 56ee a13e
000000c0: 0d87 aa3e 9e8f 6fbe edee 81be 7951 b8be
000000d0: 65b1 23be 70b1 623e d8cb 8a3d b81b b1bd
000000e0: a5b5 823e 6fb8 2cbe a5f3 69be 2084 1ebd
000000f0: a5e8 d63d ae1f 6cbe a257 3a3d 99f7 14bd
00000100: 4ed9 43ba 8694 b5be 1679 2c3e 447b 013e
00000110: 9672 43bd cd84 19be 5229 79be 8996 b53e
00000120: 0ef4 9c3e b40e 3ebe 7f32 55be d676 20be
00000130: 958d 68be fb2c 143e f997 9ebe ed66 91be
00000140: f97c 84be d451 4a3e 1454 143e fcf4 6bbe
00000150: 1a79 a03e 1de8 9d3e ddbe 28be 0b5f 8abe
00000160: 2b55 eabd eec2 82be 7ad8 ac3e 5bad bdbe
00000170: f5ad f93d 636d bdbe 8ff2 18be 3493 1c3e
00000180: a2f2 1dbe 6638 54be b971 bb3e d9bc d9bc
00000190: f534 913e 5c1d 5b3d e03a 053e 1e85 95be
000001a0: 3f0d b63d eded 953d 6db9 6d3d f0c1 4d3e
000001b0: 39aa 93bd 5e89 67bd 03ad 62be 192e 0b3e
000001c0: c764 993e 0280 bf3d 0095 8ebe dd33 a63e
000001d0: 9f9d 0d3e 38bc a73e dddd 9c3e a2fc a73e
000001e0: 202d 61be d85e b53e 5f99 203d 6ade b6bc
000001f0: 9bac 9abe 014e a4bc f199 19be c38d b1be
00000200: 0b03 743d 2162 83bd 8c66 2ebd 7d31 a5be
00000210: 1702 4ebe 8a00 753e 61c5 f63d 3f85 013d
00000220: 09b4 20be 68ad 8cbd 78db 83be 7c62 603e
00000230: 2ea0 42be 68e3 b33c 95ce 563d 167a 5cbe
00000240: 8ecc cabd f14a 87be c132 213e eae0 4bbd
00000250: 0de2 babe 839b 1dbd 53f0 f0bb a5b2 40be
00000260: 91b0 12be 96b4 3fbe 3f7b f9bd 568b 83be
00000270: 2680 65be 7231 a63e 07a4 e93d 208e 963d
00000280: bf3a a3be 1010 85be 8399 9f3e 5b56 2fbe
00000290: b5ff a9bb 615b 333d 6802 08be 48bf a2be
000002a0: de19 a83d fea3 953e 0955 d5bb a827 3bbd
000002b0: 1ff2 efbd c091 abbe 5e28 763e 51ea 2fbe
000002c0: f928 9c3e c2fa 58bb 2212 acbe 56c4 993e
000002d0: 7a08 5abe d135 69be 45d9 293e 5bb0 2d3e
000002e0: 3ecd 0dbe 9bc4 833e 7afc 75be 4112 bebd
000002f0: aacf 593e 0510 9abe 0370 a8be ef2e 89be
00000300: b631 bfbe 0ab4 91be 63d9 d0bd d26e 973e
00000310: 3168 bb3d 96e2 4ebe 470d 47bd 8560 a2be
00000320: 2068 5a3e 676a 0bbe fb59 6dbe e5dc 973b
00000330: 5f79 aa3e 7d77 7a3e 86ac c53e 0492 23be
00000340: d839 de3c d1be 233e a0f7 3c3e b7e8 2e3c
00000350: b773 243e 704b 8f3e 24fc a8be 07fd 013d
00000360: 6fc8 883e 3347 de3d 1757 973d 37f7 be3e
00000370: b731 34be c8ce 103e c47b 0bbd 50ed b93e
0.13318579 0.07328509 0.33804068 -0.09386116 -0.18797667 0.10437765 0.094300024 0.15860146
-0.057178218 0.2206726 0.3588592 -0.12679678 0.2115799 0.104333766 0.06887133 -0.08563321
-0.23964891 0.22043955 0.11265259 -0.24649112 0.13979992 0.13602434 0.07485565 -0.22043262
0.00029873915 -0.33484873 0.0638124 0.34200987 0.14728227 -0.05398 -0.27418748 -0.34408474
0.31916487 0.19956483 -0.33522975 0.0882003 -0.062746994 -0.08846357 0.14233644 -0.24567097
0.29919523 -0.21861929 -0.1853433 -0.09186202 0.15408517 0.29939502 0.17745061 0.31627148
0.3330616 -0.2339463 -0.25377598 -0.3599966 -0.1598564 0.22138 0.06777161 -0.08647865
0.2552921 -0.16867231 -0.2284685 -0.038700223 0.10493592 -0.2305896 0.04549373 -0.03636894
-0.00074710406 -0.35464877 0.16843066 0.12644678 -0.0477167 -0.14992066 -0.24332169 0.35466412
0.3065495 -0.18560296 -0.20820044 -0.15670332 -0.2271026 0.14470284 -0.3097532 -0.2839884
-0.25876597 0.19757777 0.14485198 -0.23042673 0.31342393 0.3084115 -0.16479059 -0.27025637
-0.11442026 -0.25539345 0.3375891 -0.37046322 0.12191383 -0.36997518 -0.14936279 0.15290529
-0.15424588 -0.2072464 0.366102 -0.026579307 0.28360716 0.053494796 0.1301074 -0.29203123
0.08889245 0.07320771 0.058038164 0.20093513 -0.07210202 -0.056527488 -0.22136311 0.13591804
0.299597 0.093505874 -0.27848053 0.32461444 0.13829659 0.32760787 0.30638018 0.3280993
-0.2198987 0.35423923 0.039208766 -0.022322852 -0.30209813 -0.020056726 -0.1500013 -0.34678468
0.059573215 -0.06415201 -0.042578265 -0.3226432 -0.20117985 0.23925987 0.12049366 0.031621214
-0.15693678 -0.06869012 -0.2575338 0.21912569 -0.19006416 0.021959022 0.052443106 -0.21530947
-0.09902297 -0.26424363 0.15742017 -0.04977504 -0.36500588 -0.038478386 -0.0073528676 -0.18818147
-0.14325167 -0.18721232 -0.121817105 -0.25692242 -0.22412166 0.324596 0.11408239 0.07351327
-0.31880757 -0.25988817 0.31171808 -0.17122786 -0.0051879534 0.043788318 -0.13282168 -0.3178656
0.08208059 0.2922668 -0.006510381 -0.045692116 -0.11716103 -0.33509636 0.24038836 -0.17179228
0.3050001 -0.0033108448 -0.33607584 0.30032605 -0.21292296 -0.22774436 0.16586788 0.16961806
-0.13847825 0.25735936 -0.24022093 -0.092808254 0.21270624 -0.30090347 -0.32897958 -0.2679362
-0.37342614 -0.2845767 -0.10197713 0.29576737 0.09150732 -0.20203623 -0.048596647 -0.31714264
0.21328783 -0.13614808 -0.23178856 0.004634487 0.33295724 0.24459644 0.38608187 -0.1597367
0.027127191 0.1599076 0.18453836 0.010675601 0.16059767 0.27987242 -0.33004868 0.031735446
0.2671542 0.10853424 0.07389658 0.37297985 -0.1759709 0.14141381 -0.03405358 0.36313868

blocks.0.inception_modules.0.conv_list.0.weight f4 [32, 32, 1]
00000000: 8815 453e a8eb 19be a896 e0bd 0222 5ebd
00000010: 5403 29be 7460 9cbc ff4f 2dbe 1772 58bc
00000020: efa2 c8bd c98b 453d 42dd 32be 680e a23c
00000030: 78aa 753d a0db c7bd 11d5 09be 96b5 ac3c
00000040: 4062 a8bc b32a 1d3e fee9 203e b683 a5bd
00000050: dc86 053e 5a71 18be e6c3 22be 9489 c53c
00000060: 66e3 123e 2214 f23d 754e a8bd 83e6 bd3d
00000070: 59f6 a63d 9c08 0fbe ddff cf3d 9fd9 183e
00000080: ba6c 1e3e d116 563d e912 87bd 47c0 ad3d
00000090: 1c3a 33be 0988 763d 01fa bcbd 778f abbd
000000a0: e1d8 023e 2533 f2bd 53de bbbd e88a 31bd
000000b0: 485d 583d 5d4e 0b3e 4036 8fbc 5f66 dd3d
000000c0: fae7 313d 7f6e e1bd 43aa 6dbe 977c 2bbb
000000d0: e919 87bd 699b af3d de48 e03c 0608 123e
000000e0: d58c ed3d 1a06 813c 3a83 ea3c 1754 c2bc
000000f0: 000a ae3d cec4 b83d 994b 123e 3654 5ebd
00000100: d002 fb3c 5c6b b03d 5318 4cbd 6820 efbd
00000110: 5d16 69bc ae8a 253e 6832 133e f883 c1bb
00000120: 706c b0bc 579c 303c 0e21 273e 62fc 2b3d
00000130: c85c 8fbc 3669 eb3b bc25 8fbd 2a50 fb3b
00000140: 1709 1d3e 1aab da3d d1c4 02be 7cfc 123e
00000150: aac3 1b3e 62fc 353e d7ae 4bbd 0c54 d1bd
00000160: fb2d 293e a12c 413d fe78 ba3d 8b54 b43d
00000170: dbcb 393d b24b 933d ff81 2e3e e7b8 213e
00000180: e111 a23d 33d9 f83d e265 1fbe c32b 5fbd
00000190: 3e88 89bd 7636 773a 4fe2 b3bd 6c77 d63d
000001a0: 769a e7bd a521 71bc 0bc6 2b3d ca8a 13be
000001b0: cb9c 74bd ef0d bd3d a212 47bd 760c fbbd
000001c0: c707 21be 16cc c7bd eb90 f13d 44cc 58bd
000001d0: 8220 99bd 0726 2e3e 92e7 90bd 54d3 973d
000001e0: 2d38 dcbd 45bb 0fbe df72 7abc dfb1 a83d
000001f0: 47df 0dbe 1ac0 cf3d 8c0c 503d c2f5 0f3e
00000200: 0d96 11be e3c9 183e 1a11 043e c7bd acbd
00000210: 1d33 25be d127 c13d 8c1d 323d 52d9 bcbd
00000220: aeb3 40bd cd95 c8bd 21c3 55bd 52d4 92bd
00000230: fc90 ee3d f8ed 06be 393e d53d d893 733d
00000240: fc93 0ebe f5e3 0b3e 7d7f 6abd 0310 1bbe
00000250: dd4d 3b3e ad39 3f3e 0cd4 05be b7ec 153e
00000260: 8653 df3d 72c0 cfbd 62c6 f8bd 79d3 5a3d
00000270: df40 3a3d 9084 c13d a13c 03be bcc3 f0bd
00000280: db72 ac3c cc80 1e3e e1a3 05bd 4bed e6ba
00000290: 719b 333d a72e f73d f128 b03c 794b bc3d
000002a0: 9642 0bbd 3b12 2f3e 34b1 93bc bdad c23d
000002b0: 838e 7fbc 65d8 fe3c 01d5 6a3e 1a84 86bd
000002c0: aee4 77bd 5bd9 8c3d 8fb1 3ebe 24c0 7bbd
000002d0: 0464 35be 93a3 e6bd 6eab f9bd f79b 163e
000002e0: 4851 c63c 0412 ecbc 2469 61bd 0d9d 03be
000002f0: befb c8bd 60ae e8bd 11f8 e03d 057b 103e
00000300: 22ec 2fbe a4a3 273d 3f48 123c 96b7 86bd
00000310: 364f f3bd b608 68bd 0daf 84bd 9651 10be
00000320: 2b59 19be dc95 a83d f031 11be 4c98 33bd
00000330: 181e f7bd 4ddd 253e 5096 113e b864 3f3e
00000340: a4be 5bbd 84cf 183e f587 9f3d 25df cfbd
00000350: 4d6e efbc a47b 0ebd 8b33 c63d d4e3 b4bd
00000360: 57dd e93d 0f06 313d 077e 96bc 2730 bd3d
00000370: aa38 083e 43b0 17be d47b 1bbe d49e ccbd
00000380: 7693 3f3e e08e 75bd 60b4 2c3e 0962 c03c
00000390: 8afc da3c b5ce f2bd c817 8a3d dae7 91bd
000003a0: b7b8 0f3d a937 253e 4861 fd3d cbc4 10be
000003b0: 4db9 e43d 201d fc3d bf02 1a3e 7454 5d3b
000003c0: fe71 1cba 3b98 113e 6da2 c4bd 5834 853c
000003d0: 309e edbd a85b 0d3e cfdf 00be 5f21 8fbd
000003e0: b196 3f3e cd16 243e f953 b1bd 202c 98bc
000003f0: 4de8 93bd 8b56 bf3d e933 c7bd a393 58bd
0.19246495 -0.15031302 -0.109662354 -0.05423165 -0.16505176 -0.019088961 -0.16925047 -0.013210795
-0.09796702 0.048229013 -0.17467216 0.01978226 0.059977025 -0.09758687 -0.13460185 0.02108268
-0.020554662 0.1534832 0.15714261 -0.080817625 0.13039726 -0.1488699 -0.15895042 0.024113454
0.14344558 0.11820246 -0.082180895 0.09272482 0.08152456 -0.13968128 0.10156224 0.14926766
0.15471163 0.052267853 -0.06595404 0.084839396 -0.17502636 0.060188327 -0.09227372 -0.08376973
0.12778045 -0.11826161 -0.09173264 -0.043345362 0.052823335 0.13604112 -0.017481923 0.10810541
0.04343412 -0.110074036 -0.23209481 -0.002616679 -0.06596739 0.08574564 0.027378496 0.14260873
0.11599127 0.01574998 0.028627027 -0.023721738 0.08498001 0.090219125 0.1428665 -0.05427953
0.03064099 0.08614227 -0.049827885 -0.11676103 -0.014226523 0.16166183 0.14374697 -0.0059056245
-0.021536082 0.010779462 0.16321203 0.041988738 -0.017500296 0.007184173 -0.06989619 0.0076694684
0.15335499 0.10677166 -0.12770392 0.14354128 0.15211359 0.17772058 -0.049727287 -0.10221109
0.16521446 0.047161702 0.09105109 0.08805188 0.045360427 0.07192172 0.17041777 0.15793191
0.079135664 0.121508025 -0.15566209 -0.054485094 -0.06715439 0.00094304176 -0.08783399 0.10471997
-0.11308758 -0.014717494 0.041936915 -0.14408413 -0.059719842 0.09231173 -0.048601754 -0.12258236
-0.15725623 -0.09755723 0.11795219 -0.052929178 -0.074769035 0.17006694 -0.070754185 0.074133545
-0.10752902 -0.14036281 -0.015286176 0.08237051 -0.13854705 0.10144062 0.050793216 0.14058593
-0.14217396 0.14920764 0.12897149 -0.08434635 -0.1613278 0.094314225 0.04348521 -0.09221138
-0.047046356 -0.09794197 -0.052188043 -0.07169403 0.11648747 -0.13176715 0.10412259 0.059467167
-0.13923639 0.13661177 -0.05725049 -0.15142827 0.18291421 0.18674345 -0.1306917 0.14641081
0.10904603 -0.10144128 -0.121472135 0.053424332 0.045472022 0.094491124 -0.12816097 -0.11756083
0.021050861 0.1547882 -0.03262699 -0.0017618326 0.043849412 0.12069445 0.021503897 0.09194083
-0.03399905 0.17096798 -0.018028833 0.09505794 -0.015597942 0.031109044 0.22932817 -0.06568165
-0.06052082 0.06877395 -0.1862242 -0.061462536 -0.17713934 -0.11261668 -0.12190901 0.14707933
0.02420868 -0.028817184 -0.05503191 -0.12852879 -0.09813641 -0.113613844 0.10984815 0.14109428
-0.17179921 0.040927544 0.008928358 -0.06577985 -0.11880343 -0.056648932 -0.06478701 -0.14093623
-0.14975421 0.082317084 -0.14179206 -0.043846413 -0.12066287 0.16197701 0.14217496 0.18690765
-0.053648606 0.14922911 0.077896036 -0.10149983 -0.0292274 -0.03478588 0.096778 -0.08832517
0.1141917 0.04321867 -0.018370641 0.092377 0.13302866 -0.14813332 -0.15183955 -0.099912316
0.18708596 -0.05995071 0.16865683 0.023484247 0.026731748 -0.118558325 0.06742817 -0.071243
0.035088267 0.16134514 0.123720706 -0.1413757 0.11168156 0.12310243 0.1504011 0.0033772262
-0.0005967914 0.14218228 -0.09601293 0.016260311 -0.116024375 0.13804495 -0.12585376 -0.06988787
0.18709828 0.16024323 -0.08658595 -0.018575728 -0.07222042 0.09342679 -0.09726698 -0.052875172

blocks.0.inception_modules.0.conv_list.1.weight f4 [32, 32, 1]
00000000: 81e4 5c3d a978 3a3d 528d 1e3e 376d a63c
00000010: 463f ad3d f4ea e23d e1d5 003e cca6 353c
00000020: 9008 fe3d 6172 3dbe 5445 e53d cdc6 ebbd
00000030: da4c 11bd 6816 4dbe 9e7b 263d d573 213e
00000040: 1d9c 0ebe d2a4 7ebd ebc4 04bd 0491 05be
00000050: 3baf 683d 3598 d3bd 34fc 283d ef4b 0cbe
00000060: c4db 913b b640 09be bafc 053d decc f5bd
00000070: 03d8 66bd 4018 f83c 1a34 72bc 4b87 e9bd
00000080: 6bef 33be 3e47 0dbe d47a 05be a26f 17be
00000090: e6f8 a6bd bfbf 713d 83b1 943d d1ef 1abe
000000a0: 98bd 843d 00fd 0d3d abee 3ebc a706 afbd
000000b0: 94b4 b03b 850e 71bd e1f5 2bbc 582d f2bd
000000c0: 4634 aabd a5d0 19be 41d2 143d 19cd ce3d
000000d0: 1890 b5bd dbf5 e23d e712 e5bd 6bb7 c13d
000000e0: 8dcd f43c 3029 e93d 9742 14be 382b 9cbd
000000f0: 0f95 26bd fa3b 0c3c a3ff 1dbe 42d1 32be
00000100: 26e4 08be 7e71 493e a525 d93d 65d4 cdbd
00000110: e886 683c ab42 343e 07e3 cdbd 4c20 38be
00000120: 8819 0a3e 3fd0 bebd 22ab 09bd c8ea 9fbb
00000130: ce23 0fbe 404f b63d ff17 37bc ae33 113c
00000140: 3f7b 08be 57ff bcbd 2a5b a73d 9f4b 953d
00000150: 894b f4bd 7c4f d63d 7829 453e 0309 593d
00000160: 8ec0 88bd fea0 e83d 4ae7 173e 5ed9 1ebe
00000170: 73ff 32bd a194 013e c04e 34bb e0bf 16bd
00000180: c43b 8fbb 9021 c9bc 5651 06be 5965 203e
00000190: 8797 85bb 5766 3cbe ac53 c73d 0ef3 0fbe
000001a0: ef8a 39be 7450 14be 78c4 ba3d 2d21 e7bc
000001b0: 1d14 8f3d 77f8 de3d bbec a1bc b8d5 c53c
000001c0: 841b 24be a218 8abd f52a cfbd 8e01 23bd
000001d0: 9cb7 c6bd 413b 013d 22b1 30be dfe6 90bc
000001e0: b3dc d13d 5d1e 16be 13dd b3bd f85f 263e
000001f0: 1286 03be 0546 f13c bf72 ef3d bb4c d6bc
00000200: e09f 283e 836e b23c 7e9b ac3d 518e 6dbc
00000210: da90 cebd 21f1 bd3b 9013 eeba 07e6 953d
00000220: 9896 6a3b 622d 1bbe 143e 1bbe d21e 263e
00000230: 462b f3bd 123b 17be 8edc 33bb 8522 2c3e
00000240: 741e 77bb a60f c4bc a2b3 e5bd 4493 3abe
00000250: 89d7 793d f802 b2bd 2bb8 533c 8b9b c2bb
00000260: 8828 c8bd a74f 37be a6bb dc3d 5a4a 02bd
00000270: b8de b3bd 728b 8fbb 8d7a 30be 9bd0 cebd
00000280: fca4 f8bc 18a9 64bd 1ad6 433e 3be8 10be
00000290: 061a 873c 0222 00be eb0f 083d 1f30 f5bc
000002a0: b5ae f6bd 2251 6d3d 2abb 073e 3696 003d
000002b0: 0959 22be 0487 91bd 9aaf 483d 0087 35be
000002c0: a599 903d f455 fcbc 4fe5 c0bd 5540 1bbe
000002d0: 1136 233d 4ad6 36be d72f 07be 20fa 3d3d
000002e0: 339e 273e d233 30be 72ce 54bd 795e 3dbe
000002f0: 12fd ccbd 5de0 313e 3be9 0abe 8718 2bbe
00000300: cb58 0fbe e21e c93b b5b0 453b 712f 92ba
00000310: fe9e 07be 931b ecbd bf9f a4bc 1037 94ba
00000320: ff2e 823d 05f7 c5bd 7b8e d03d 04b5 a5bc
00000330: c245 65bd aad8 19be c64b 013e 0753 4ebd
00000340: afce bb3d 5c53 42bd 70d5 013e d096 0abb
00000350: b24a 313c ec41 4bbd ffc2 2d3e 91b9 953c
00000360: 2f54 24be dca8 163e 0581 333d 314c 003e
00000370: f7d9 2fbe 6a18 c2bd 84f5 28be 7cfb 38be
00000380: 8f6c 0dbe 3336 e23d 9337 0fbe 4ca5 08ba
00000390: e7d6 b83d b3b3 2b3e 172a f93c 0640 c8bc
000003a0: deaf 0f3e 22c6 75bd 2659 6e3d 9163 1abd
000003b0: ca3f 73bd f726 123d 6e01 183e ab73 0b3e
000003c0: c748 fbbd 5b19 23bd 09d7 70bd ed2f bc3c
000003d0: 4d77 2f3e d5dc 173e 0fb2 cc3d fcf7 0e3d
000003e0: 2517 48bd 722f de3d 64af 68bd dfad 3f3e
000003f0: ef0e 04be e047 0b3e 22b3 cbbd d77c ebbd
0.053928856 0.045525227 0.15483597 0.02031575 0.08459334 0.1107997 0.12581588 0.011087131
0.12403977 -0.18500663 0.11194864 -0.115125276 -0.035473682 -0.20028079 0.040645234 0.15766843
-0.1392674 -0.062168904 -0.032414358 -0.130436 0.056807738 -0.103317656 0.041256145 -0.13700841
0.004451247 -0.13403592 0.032711722 -0.12001966 -0.05635835 0.030285 -0.01478293 -0.11402758
-0.175718 -0.13796708 -0.13035136 -0.14788678 -0.08152942 0.059020754 0.0726042 -0.15130545
0.06481475 0.034665108 -0.011653583 -0.08546191 0.0053926203 -0.058851738 -0.010495634 -0.11825055
-0.083107516 -0.15020998 0.036333326 0.10097713 -0.08865374 0.110820495 -0.11185246 0.09458812
0.02988317 0.11384809 -0.14478527 -0.07625431 -0.040669497 0.008559221 -0.15429549 -0.17462638
-0.13368282 0.196722 0.10602883 -0.10050277 0.01419232 0.17603557 -0.10053068 -0.1798107
0.13486302 -0.093170635 -0.03361047 -0.004880283 -0.13978502 0.089018345 -0.011175155 0.008862419
-0.13328265 -0.0922839 0.08171685 0.07289814 -0.1192847 0.10464379 0.192541 0.05298711
-0.06677352 0.11358832 0.14834324 -0.15512607 -0.043700647 0.12654354 -0.002751276 -0.03680408
-0.0043711383 -0.024552137 -0.13116965 0.15663661 -0.0040769014 -0.18398415 0.09732756 -0.14057562
-0.18119405 -0.14483815 0.09119505 -0.028214062 0.06986258 0.10887235 -0.019766202 0.02414976
-0.16026121 -0.067429796 -0.10115615 -0.039796405 -0.097029895 0.03155065 -0.17255071 -0.017688213
0.10247173 -0.1466002 -0.08782401 0.16247547 -0.12844113 0.029452333 0.11691808 -0.026159635
0.16467237 0.021781212 0.08428095 -0.014499263 -0.10086222 0.005796567 -0.0018163789 0.07319265
0.0035795327 -0.15154031 -0.151604 0.16222695 -0.11873488 -0.14768627 -0.0027444693 0.16810043
-0.003770736 -0.023933243 -0.11215903 -0.1822024 0.060996566 -0.086919725 0.012922327 -0.0059389523
-0.09773356 -0.17901479 0.107779786 -0.03180919 -0.087827146 -0.004380637 -0.1723425 -0.10098382
-0.030352108 -0.055825323 0.19124642 -0.14151089 0.016491901 -0.12512973 0.033218306 -0.029930172
-0.120450415 0.057938702 0.13254991 0.031393252 -0.15854277 -0.0710583 0.04899559 -0.1772728
0.07060555 -0.030802704 -0.09418737 -0.1516126 0.039846484 -0.17855182 -0.13201843 0.046381116
0.16368942 -0.17207268 -0.051954694 -0.1849307 -0.10009207 0.17370744 -0.13565533 -0.16708575
-0.13998716 0.0061377147 0.003016514 -0.0011153055 -0.13244244 -0.11528697 -0.020095704 -0.0011307914
0.0635662 -0.09666256 0.10183426 -0.020227917 -0.05597473 -0.15024057 0.12626562 -0.05037215
0.09170281 -0.04744278 0.12679076 -0.002114702 0.010821031 -0.049623415 0.16968916 0.018276962
-0.16047738 0.14712852 0.043824214 0.12529065 -0.1717299 -0.09477313 -0.16499907 -0.18064684
-0.13810943 0.11045494 -0.13986044 -0.00052126194 0.09025364 0.16767769 0.030415578 -0.024444591
0.14031932 -0.060003407 0.058190487 -0.03769261 -0.059387006 0.03568169 0.14844295 0.13618343
-0.122697406 -0.039819103 -0.058798824 0.022972072 0.17135353 0.14830334 0.099948995 0.034904465
-0.048850197 0.10848893 -0.05680789 0.1871867 -0.12896322 0.13601637 -0.09946276 -0.11498421

blocks.0.inception_modules.0.conv_list.2.weight f4 [32, 32, 1]
00000000: bb5f 913d b3ca 803d 311f 103d 3c90 f63d
00000010: c13b 9f3d d3ac c5bd e701 163d d7db 29be
00000020: f5e7 0bbe 4896 9dbc 7281 d5bd 612e 8a3d
00000030: 5398 fa3d 64e0 c03d 3e04 063d fce9 b13d
00000040: 95b2 ee3d 4b75 273e e007 643c 05b6 0a3e
00000050: 4408 31be 8d73 39be c441 903d 4175 1a3e
00000060: f9de 3d3c 3d0b bdbd 2d78 053d c865 b93d
00000070: d342 bd3d 36ae 513d 9f91 3d3d 8870 1bbe
00000080: fd8a ba3d 5b50 213e 70c8 1a3e 2847 2cbe
00000090: 5e80 8dbd c72e 36bc d192 a73d bcca 933d
000000a0: 6a3a 1c3d c795 a23d 9150 d2bd 72d1 003e
000000b0: 603d edbd 2157 47bd 1e6e 07be d94c 1fbe
000000c0: 7b38 a13d 81c9 7bbc a5b2 09be 1c65 e4bd
000000d0: de38 03be bf6e 233d fb9c 2c3e d78d d93d
000000e0: 6512 533d 8816 b73d ac32 92bd 2d8a 87bd
000000f0: 3185 24be 32f7 9b3d 5e4f 0a3e 202f dabd
00000100: 0a42 c73d 4eb3 423d 9a8a 2abe f422 5abd
00000110: 89f4 97bd c517 053e 5cc1 e338 6d7e f73c
00000120: 3531 13be dc58 213d b76e b6bc 7d3f 2bbc
00000130: c97c 793d c6e9 cc3c 4204 d8bd f902 e2bd
00000140: 92bc 1bbc 1c3b a53c b539 de3c bb01 a03d
00000150: 2f80 d33d 2bcd 18be bdf3 f8bd c3f3 943d
00000160: 3643 213e b4e4 943d 98ea 973d 9246 80bd
00000170: e476 b53d 88af 91bd 815a 09bc fd82 f93d
00000180: 0644 81bc 7bc8 e6bd 43be 0e3e 7843 28be
00000190: 4daf c5b9 73c5 2ebe 5ef2 a03c b207 733c
000001a0: 5232 003e 8015 9abc b767 0e3e 054f ebbd
000001b0: bcd7 18be 1630 f3bd 764a bebd ba9e 2cbe
000001c0: c323 e23d 3b6b 03be d4a3 c1bb a0fd da3d
000001d0: 7b52 2bbe 2034 fabd 71cd ae3b 4e1d dd3d
000001e0: 7d44 63bd 91ca 05be 193a 44bd b4cf febd
000001f0: 4097 e3bc 9fd2 3d3d 31f1 953d c62b 2bbe
00000200: 1954 1abe bb13 27be dcb1 4d3e cf54 133d
00000210: dceb d73d 09fa 24bd 2372 f83d 77ac e7bd
00000220: bb20 083e 3286 d8bd 0edb 01be 32ca 74bd
00000230: c43e b23d a572 2cbe ad99 bdbd e9e6 13be
00000240: 13a4 efbc 5743 5dbc 8093 763c 14ee 313e
00000250: 1cf1 17be ca7a 50bd d615 283e 2ca2 5d3d
00000260: 2858 2ebd b8ae 03be 57d9 a5bd 70b5 913d
00000270: 4078 493d b755 04bd 3d22 f13d cc82 20be
00000280: 7d58 4b3e bf30 603c d62e 08be a410 dfbd
00000290: 9b37 f5bd 74db 103e af9c 883d 6e7b 893c
000002a0: ba84 0f3e 407f a9bd dd4b c83d 847a babd
000002b0: f996 0cbe c538 b6bd 426e b6bc e7f7 163e
000002c0: 893e 623c 77f8 7abd ccb2 22be f764 263e
000002d0: 60bc cabd a7ec 093e 0a01 19be e435 bbbc
000002e0: 0dac 243e e20e dfbd 4fc8 06be 40f0 9e3c
000002f0: 6ef8 bb3d 721d b0bd fce7 ffbd a31c a43d
00000300: def9 313e 6073 31bb 74d7 92bc d322 503c
00000310: 36d8 3e3e f9e7 7ebc c305 39be 6434 15be
00000320: 7817 a23d 76ce 24be d4e5 38be 3fb2 54bd
00000330: 7b1b adbd 4172 91bd 47d3 e8bd f6e8 7b3d
00000340: 504e c0bd 5009 26be d857 3a3d 556a 403e
00000350: c48e 79bd f93c 11bd 322b b53d 17bb c8bd
00000360: d17e a83d 86f6 29bd 344e e4bd 15fc c93d
00000370: ce94 363c 3c8e 43be 1bab 3a3d d51e a3bc
00000380: fee3 e1bd 9480 a7bb 6605 e7bd acc2 0fbe
00000390: db62 e23d 4a0b 8d3c c573 073d 53ec cebc
000003a0: 7a53 cc3d c1f0 31be 3746 27bd 9536 b73d
000003b0: 7827 23be 3da1 c33c a635 e23d 6596 a4bc
000003c0: dc73 f73d 33ca 193d 5891 f43d 72f7 e13d
000003d0: 7e08 453d 5580 073e 9932 983d eb40 223e
000003e0: 1b6c fcbd 6b6e 9c3d 3f8d be3d 3211 f4bd
000003f0: baec b03d b1f2 03be 9bea eabc f196 a0bd
0.07098337 0.06288662 0.035185996 0.12039229 0.07775069 -0.09652104 0.036622908 -0.16587768
-0.13662703 -0.019236699 -0.1042508 0.06747127 0.12236085 0.09417799 0.03271889 0.08687207
0.116551556 0.16353337 0.013917893 0.13545997 -0.1728831 -0.18110485 0.07043794 0.15083791
0.011588805 -0.09230659 0.03258531 0.09052616 0.09241261 0.05119153 0.046281453 -0.15179646
0.09108541 0.1575331 0.15115523 -0.16824019 -0.0690925 -0.011119551 0.081823 0.07216403
0.038141645 0.07938724 -0.10269273 0.12579897 -0.11583972 -0.048667077 -0.132256 -0.15556659
0.07872101 -0.0153678665 -0.13447054 -0.111520976 -0.12814662 0.039900538 0.16856758 0.10622757
0.051531214 0.08939844 -0.07138571 -0.06618152 -0.16066433 0.07615508 0.13506839 -0.1065352
0.09729393 0.04753428 -0.16654435 -0.05325599 -0.07419688 0.12997349 0.000108602195 0.030211652
-0.1437424 0.039391384 -0.02226959 -0.0104521485 0.06091002 0.025013816 -0.10547687 -0.11035723
-0.009505408 0.020169787 0.027127126 0.0781283 0.103271835 -0.14922015 -0.121558644 0.07273056
0.15748295 0.07270184 0.07417792 -0.0626346 0.08860567 -0.07113558 -0.008383394 0.12183187
-0.015779506 -0.11268707 0.13939767 -0.16431987 -0.00037705377 -0.17067508 0.01964682 0.014833378
0.12519196 -0.01880908 0.13906752 -0.11489681 -0.14926046 -0.11874406 -0.09291546 -0.16857424
0.11041977 -0.12833874 -0.0059094224 0.106929064 -0.16730683 -0.12216973 0.005334549 0.10796605
-0.055485237 -0.13065554 -0.04790697 -0.1244196 -0.027782083 0.046343442 0.07321394 -0.16715917
-0.15071143 -0.1631612 0.20087379 0.03596955 0.105430335 -0.040277515 0.12131145 -0.11312192
0.13293736 -0.10572471 -0.12681219 -0.05976314 0.08703378 -0.16840608 -0.09257827 -0.14443554
-0.029253041 -0.013504825 0.015049815 0.17375976 -0.1483807 -0.05089835 0.1641458 0.054109737
-0.04256454 -0.12859619 -0.08098095 0.071146846 0.049186945 -0.032308307 0.117741086 -0.15674895
0.19857974 0.013683497 -0.13299116 -0.10891846 -0.119734965 0.14146215 0.0667051 0.016782489
0.14015475 -0.08276224 0.09780095 -0.09105399 -0.13729466 -0.08897547 -0.022269372 0.14743005
0.013808855 -0.06127211 -0.15888518 0.16249453 -0.09899211 0.13469182 -0.14941803 -0.022852845
0.16081257 -0.108915105 -0.13162349 0.01940167 0.091782436 -0.08599366 -0.124954194 0.080132745
0.17380473 -0.0027076825 -0.017925002 0.012703615 0.18637165 -0.015558236 -0.18068604 -0.14570767
0.079146326 -0.16094384 -0.18056422 -0.0519278 -0.08452507 -0.0710187 -0.11368423 0.061501466
-0.09389937 -0.1621449 0.04549393 0.18790562 -0.060927168 -0.03545854 0.088461295 -0.098013096
0.08227313 -0.04149487 -0.111477286 0.09862534 0.011143876 -0.19097227 0.045573335 -0.019912163
-0.11029814 -0.0051117633 -0.112803265 -0.14039105 0.110540114 0.017217297 0.03306939 -0.025259173
0.099768594 -0.17376997 -0.040838446 0.089459576 -0.15933025 0.023880595 0.11045389 -0.020091245
0.12082645 0.037546348 0.119417846 0.110335246 0.048103802 0.13232549 0.07431526 0.15845077
-0.12325307 0.07638248 0.09304284 -0.11917342 0.08638902 -0.12885548 -0.028676322 -0.0784129

blocks.0.inception_modules.0.conv_list.3.weight f4 [32, 32, 1]
00000000: 5988 ebbd 5585 a3bd 155c 64bd 52f7 273c
00000010: d580 00bb de82 243e 5cb9 92bd 94c0 a5bd
00000020: 00a6 203d 3edf fabd 7f56 21be babb 75bd
00000030: 1e8e 32bd aacc 1c3e 9ca7 e83c 1da7 d33d
00000040: b792 0b3e bf58 4e3e 277d 35bd 705d afbd
00000050: 1f01 1ebd aa6b 773d b891 cd3d 8d99 9cbd
00000060: baaa febd 294e 8cbc 0c11 393e eb89 173e
00000070: 7534 223d 5e0f 15be dd36 33bd f06b e03d
00000080: 9e1d f93c 8312 0bbe 0162 38be d86b e83b
00000090: 811b c13d 557e c43b c735 c63d 5726 0dbe
000000a0: f535 93bd 24ef 42bc ac88 7d3d c1a3 84bd
000000b0: 6d36 f03d 9c75 20be 0434 a83d fbb5 ec3c
000000c0: 6c78 0b3e cc90 c63d 7fe0 fb3d 47ce 0a3e
000000d0: be33 40be 27e4 0c3e f599 50be 7515 81bd
000000e0: d7a9 f13b 3254 ca3c efac a73d 0326 af3d
000000f0: 7cf8 1d3e ff88 1fbe 6e29 62bc 25fb d43d
00000100: c499 8c3a 42f1 5cbd c312 f1bd 98a1 7a3d
00000110: b79c b63d 1788 10be 7df2 c93d f166 153e
00000120: b4ac 2f3e 428e ba3d dad2 903d 5986 df3d
00000130: 6d28 8cbd c04a 0bbe d760 09be 0eed 04be
00000140: e549 cbbd b922 fbbd 0a3f b4bd 860b 5f3d
00000150: e262 193e 8e83 8e3d 22b3 4abe aaaa 6e3d
00000160: ba11 d83d 8015 003e 0100 5a3d 6f9a 053e
00000170: d261 15be ae67 f53d 4014 4bbd b6d1 e63d
00000180: 602a 4bbd 1b9c 073e 1831 8ebd ac8d 343e
00000190: ba68 003e b181 69bd 69da e9bc 5fe8 273c
000001a0: 9d74 d0bb fa52 863b db12 99bd 1d3e a93d
000001b0: 5d43 b7bd bd16 cc3d 7424 e5bd 4483 13be
000001c0: ca89 183e d872 c4bd 782a d3bd 58e8 73bd
000001d0: 94bd 9f3d 6115 4dbc 89d1 17bc 5903 2a3e
000001e0: a71f 27bd ec9e 03be bb2c d43d bd51 d0bc
000001f0: df12 d93c 8f58 483e d41b 1dbd 3ff7 dcbd
00000200: fe8e 1f3e afe9 dabd 8cc4 c03d 6978 f5bc
00000210: 1cc8 13be a6b3 393e f22a 00bd 2c0b 133d
00000220: d775 1dbd 163b 213e ef59 133e f8cc 063e
00000230: f6f9 a03d 0a8d 1abd b9d7 df3d 03df 2dbe
00000240: da11 eabd c2b0 143e 0145 293e 5856 75bd
00000250: ee5d 113e ad8e 07be 994c b93d 3a77 a13c
00000260: 0e67 1fbe 8513 11be 469f f53c 09e5 16be
00000270: 2c2d 2cbe 4575 cebd 7e84 aabd 9814 073e
00000280: 4c0e 29be 65f3 2bbe c360 3bbe d79f 57bd
00000290: 4116 d1bd e115 023d f0fb 2f3d 2479 4f3e
000002a0: 50d2 cfbd 3fb4 8bbd b84c 173e 0d82 7bbc
000002b0: e1a2 a03d 33b3 993d ac85 18bd f1fc d4bd
000002c0: b5b0 25be 0d42 3bbe f7a2 843b 1516 28be
000002d0: ce7d 0dbd 1b36 31be e43d 673d 5065 d6bd
000002e0: 4754 a5bc 8578 213d b2dc 3f3d 74a6 d13d
000002f0: 2502 c4bd 4f10 0c3e ea09 173e 3eef aab9
00000300: 833e fabd e642 1d3c 3bc0 67bd f936 8b3c
00000310: 3255 8bbd 590d cbbd a3d0 c1bd c0ac b8bd
00000320: 4ead 2e3e 436a 0ebb 83e7 2cbc a66e fd3d
00000330: 58e2 bb3d 9f38 39be 4383 5abc fa88 a5bd
00000340: ab1e 073e d4e1 01be b6ae 3cbd 846e 6b3d
00000350: de93 263e a891 a03c 6533 abbb 4147 f8bb
00000360: e8c8 8f3d a831 19be 4683 9abd c810 2bbe
00000370: 4f91 f53d 0896 35be 5f8a da3c bcc2 113e
00000380: 11db 1f3c 3abd 443e e970 f13d 0a2b 173e
00000390: 2b78 2cbe 1a36 333e d331 133d 87e1 253c
000003a0: 97bf 013e 8253 cbbd 2f55 153e e57f 40bd
000003b0: 9c4f 3a3c 4c01 1f3e 501c a3bd 718e 09be
000003c0: 030e 80bd 3461 853d ed9b e3bd 9a42 c03d
000003d0: 6083 1bbe d69b bf3d b693 a03c b5e5 f6bd
000003e0: c054 8fbd 42be 00be 776c 3f3d 1040 c2bd
000003f0: cd6a debd c078 5ebc 74ec 1d3d d76e 233c
-0.115006156 -0.079844154 -0.05575188 0.010251837 -0.001960804 0.16065547 -0.07164261 -0.08093372
0.03922081 -0.12249611 -0.15755652 -0.059993483 -0.043592565 0.15312448 0.028400235 0.10334609
0.13630186 0.20151041 -0.044308808 -0.08562744 -0.038575288 0.06040541 0.10037559 -0.07646475
-0.12434907 -0.017127113 0.18072909 0.14798705 0.03960081 -0.14556643 -0.043753494 0.109580874
0.03040963 -0.1358128 -0.18006136 0.007092934 0.09429074 0.0059965053 0.09678226 -0.13784157
-0.07188026 -0.011897836 0.06189792 -0.06476546 0.11729131 -0.15669864 0.08213046 0.028895369
0.13620156 0.096955866 0.122986786 0.13555251 -0.18769738 0.13758908 -0.2037123 -0.06302921
0.007374983 0.02469835 0.08187281 0.08552172 0.1542682 -0.15579604 -0.013803823 0.103994645
0.0010726978 -0.05394102 -0.11771157 0.061189264 0.0891661 -0.14114414 0.09860704 0.1459005
0.17155725 0.09109165 0.07071467 0.10914297 -0.06843648 -0.13602734 -0.13415848 -0.12981054
-0.09926204 -0.12262482 -0.08801086 0.05445435 0.14979127 0.06958686 -0.19794896 0.058268227
0.10550256 0.12508202 0.05322266 0.13047193 -0.14588097 0.11982666 -0.04957986 0.11270468
-0.04960096 0.13243143 -0.06942958 0.17632169 0.1253995 -0.05700845 -0.028546529 0.010248273
-0.0063615576 0.004099247 -0.074742995 0.082638 -0.089483954 0.099652745 -0.111885935 -0.14405543
0.14896312 -0.09592217 -0.10310835 -0.059547752 0.07799831 -0.012517304 -0.009266266 0.1660284
-0.04080167 -0.12853593 0.10360094 -0.0254296 0.026498256 0.19565032 -0.038356617 -0.10789346
0.15581891 -0.10689103 0.09412488 -0.029964643 -0.14431804 0.18134937 -0.031290956 0.035899326
-0.03844246 0.15745196 0.14389776 0.13164127 0.07860176 -0.03773216 0.10929818 -0.16979603
-0.11429186 0.14520553 0.16530229 -0.059896797 0.14195988 -0.1323802 0.09047813 0.019710172
-0.15566656 -0.14167602 0.029983174 -0.14735807 -0.16814107 -0.10080961 -0.08326052 0.1319145
-0.1650936 -0.16792066 -0.1829863 -0.05264267 -0.10209323 0.031759147 0.042964876 0.20261055
-0.10147536 -0.068214886 0.1477536 -0.015350831 0.07843567 0.07504883 -0.037236854 -0.10399807
-0.1618069 -0.18286915 0.0040477472 -0.16414674 -0.034543805 -0.17305796 0.056455508 -0.104685426
-0.020181788 0.039421577 0.04684133 0.102368265 -0.095707215 0.13678096 0.14749876 -0.00032603176
-0.122189544 0.009598469 -0.05657981 0.016993986 -0.06803359 -0.09914655 -0.094636224 -0.090173244
0.17058298 -0.0021730817 -0.010553244 0.1237462 0.09174031 -0.18088005 -0.013336959 -0.08082767
0.13195293 -0.12683803 -0.046065055 0.057478443 0.16267344 0.019600704 -0.0052246326 -0.0075768535
0.07020742 -0.14960349 -0.0754457 -0.1670562 0.11990606 -0.17733014 0.026677309 0.14234442
0.009756819 0.19212809 0.11789114 0.14762512 -0.16842715 0.17501107 0.035936188 0.010124571
0.12670742 -0.09928037 0.14583276 -0.04699697 0.011371519 0.15527838 -0.079643846 -0.13433243
-0.062526725 0.06512681 -0.11113725 0.09387703 -0.15186834 0.09355895 0.019601684 -0.12055532
-0.06998587 -0.12572578 0.0467343 -0.09484875 -0.108602144 -0.013578594 0.038555577 0.009975157

blocks.0.inception_modules.0.conv_list.4.weight f4 [32, 32, 1]
00000000: d97e cf3d da79 49bc 0d7b f13c 77bd ae3d
00000010: 7e37 6dbd 903c 53bd c5db 46bd 9bbb d1bd
00000020: c2cd 0b3e ac4e 143b 6690 e63d 832a 2a3d
00000030: 22cb d63d 2ccb 6ebd ef84 123e 0bff 083c
00000040: f8c2 913c 0a9f 203e 790a 1f3e e289 97bd
00000050: 55f2 95bd f209 ed3d bae0 923d 0258 e8bc
00000060: cbaa df3d f34c df3d 8d83 33be 071c b13d
00000070: 817d b73d bc3f 98bd fc0a 9dbd 3465 cd3a
00000080: 4a54 233d a528 c63d f8f6 433e a5bc 2a3e
00000090: 3188 47bd e506 1c3e a075 d6bd 9dc1 d13d
000000a0: e59b b63c f3cd eb3c 098b 75bd ce3d 013c
000000b0: 24b6 fbbd a332 70bc a08e d73d 1c02 5ebd
000000c0: 7975 903d bac2 39bc 1950 d63d 14ef 62bd
000000d0: c493 123d 0f61 b73a a568 523e bf0d 263e
000000e0: 16fc 1ebe 09f3 05be 39be b5bc 8ed0 363e
000000f0: a393 13be 4dd7 fbbd bde6 a3bc b375 983d
00000100: 76e4 ebbd ca99 0abe 850e 893d c342 31be
00000110: 2ef2 1e3e 3320 0a3e 95be a93d 8284 8ebd
00000120: 2308 94bc bafe 313d 70c9 33bd fc74 ad3d
00000130: b57a 42be 2828 2dbe 2377 35bd 35c1 473e
00000140: f12d bcbd f57d 08be 3d46 843c 5d93 033e
00000150: 77c1 ff3b c8e1 283d 68ff 3e3e 1f4e 10be
00000160: b221 6c3c a6f5 cdbd cfde 0d3e d480 4c3e
00000170: af89 adbd de8e 463d 0b55 30be 157c 8ebc
00000180: cc4f 39be 9f10 2ebd b917 c03d dd11 dc3d
00000190: fbc0 383c f575 ef3d 380f 7d3c 6677 a0bd
000001a0: 7024 b63d ba72 013e 2327 bd3c fe01 813d
000001b0: 043e 213e 5ff0 33bb 4423 d9bb aac2 23bc
000001c0: 19fe bc3d 0adc b53d 64d8 00be 0d39 ffbd
000001d0: 6dae 57bb eb59 143e 5127 023c 8887 263e
000001e0: e693 21be 0c57 7fbd 9b65 1ebd 4e26 413d
000001f0: 3933 8fbd aae7 10be 4fb2 09be 0124 ffbd
00000200: 7d0f 8a3c c254 15be ae3c 56be 8af1 343d
00000210: a171 1b3d 157b 23bd 3792 c33c c0fc 22bd
00000220: 7228 b3bd be92 f13d 133c cdbd 22a9 42bd
00000230: 0daa d93b b8f9 f13d 7ed9 d9bc 0e4e ab3d
00000240: 593d bebd 1934 f63d 6de8 32bd 2136 8cbd
00000250: 00cf e5bd 4904 9abc 7150 5fbd 1e4e 00be
00000260: 9e92 ff3d eba5 373e d01c 0ebd f8cf 4c3c
00000270: 7af6 3a3e fb45 67bd 256d 11bd 8b2b cc3d
00000280: 929e 183d 7d51 1cbe 2bd9 0dbe 13a3 d13d
00000290: 4b41 8abd de7a 773c d227 9d3c 4b0f 9b3d
000002a0: 81f4 3d3e 5ef8 9dbc c165 94bd 8f74 193e
000002b0: 6b62 dc3d b59f a7bb c51e 1f3d 4c0d 9b3d
000002c0: b65c bdbd 2fad 193d d6e5 f13d 56ae 9fbd
000002d0: 71b7 26be b126 223e 07df af3d b0f8 a7bd
000002e0: b4db 05be aae1 40be 41ad eb3d 9089 b43d
000002f0: 554f de3d 4d2a dbbd 4971 ecbd 8f06 9f3d
00000300: dbc6 3cbd c739 ccbc 8561 df3d 5082 cf3d
00000310: 08a6 9ebd 86a7 07be 26a6 8cbd 619f 503d
00000320: ec06 e6bd f2df 043e 4d2f ce3c 63a1 9a3d
00000330: 091f 1c3e a9c7 93bd ff97 8b3d b01f 15be
00000340: c5e5 85bd b074 18be 7058 483d 00f7 12be
00000350: 6416 2fbd 3f5f 51be 71d5 27be 98cd 73bd
00000360: 5789 823d 5f02 f9bd 6714 04be eb06 0e3d
00000370: 40ef 583c e527 093e 75f1 6ebc 2b6e 31be
00000380: 7948 3d3e ae36 153e 650a cdbd c617 a5bd
00000390: 4153 dabd cdc7 223e f573 26be 1a04 45be
000003a0: 0501 d43d 2ab5 1a3e 39e0 76bc d9aa 30bc
000003b0: f1d9 023e fe7d 173c add4 d33d 5577 423e
000003c0: f2e2 503d 6fef 97bc fc91 67bc 9fdf c6bd
000003d0: dbfc 883d 457f 1cbe 336f 01be 35d5 733d
000003e0: 7b4f 1fbe dc27 ba3c 9f9c 1bbd 4a32 15be
000003f0: 2c12 d53c 2ecb f4bd 9d04 12bd fce8 3d3e
0.10131616 -0.012297118 0.02947762 0.08532231 -0.05791425 -0.05157143 -0.048549432 -0.10240861
0.13652709 0.00226299 0.112580106 0.04154445 0.10487963 -0.05829923 0.14308523 0.008361588
0.017793164 0.15685669 0.15531339 -0.07399346 -0.07321612 0.115741625 0.071717694 -0.028362278
0.10921248 0.10903349 -0.17530651 0.08647924 0.08959485 -0.07434031 -0.07668111 0.001567042
0.039875306 0.09675721 0.1913718 0.16673525 -0.048713867 0.15237005 -0.10471654 0.10242007
0.022291133 0.028784728 -0.059947047 0.007888271 -0.122906 -0.01466051 0.105252504 -0.05420123
0.07053656 -0.01133793 0.10464496 -0.055403784 0.03578545 0.0013990718 0.20547731 0.16216181
-0.1552585 -0.13080992 -0.022185432 0.17852995 -0.14411788 -0.12296925 -0.020007486 0.07444324
-0.11518185 -0.13535228 0.066922225 -0.17310624 0.15522072 0.13488846 0.08288304 -0.069588676
-0.018070286 0.043455817 -0.043893278 0.084695786 -0.18992122 -0.1690985 -0.04430307 0.19507296
-0.0918845 -0.13329299 0.016146773 0.12849183 0.007805045 0.041230947 0.18652117 -0.14092301
0.01441233 -0.10056619 0.13854526 0.19971019 -0.08473527 0.048476093 -0.17219941 -0.017393151
-0.18096846 -0.04249632 0.09379525 0.10745595 0.011276479 0.116924204 0.015445523 -0.078352734
0.08893669 0.12641421 0.02308995 0.06299208 0.15746313 -0.0027456505 -0.0066265184 -0.009995142
0.09228153 0.0887986 -0.12582546 -0.124620534 -0.0032910362 0.14487426 0.007943944 0.16262639
-0.15779075 -0.062338874 -0.038671117 0.04715567 -0.06992192 -0.14150873 -0.13446926 -0.12458039
0.016853089 -0.14583114 -0.20921585 0.044175662 0.03795016 -0.039912302 0.023873432 -0.039791822
-0.08747949 0.11795567 -0.10021224 -0.04752458 0.006642586 0.11815208 -0.026592966 0.08364497
-0.09289045 0.120216556 -0.04367869 -0.06846262 -0.11221123 -0.018800871 -0.054520074 -0.125298
0.12479137 0.17934386 -0.034695446 0.0125007555 0.18258086 -0.056463223 -0.03550448 0.09969243
0.0372606 -0.1526546 -0.13852374 0.10236182 -0.06750735 0.015104977 0.019184027 0.07571276
0.18550302 -0.01928347 -0.072459705 0.1498587 0.10760959 -0.005115474 0.038847703 0.075708956
-0.09246199 0.037518676 0.11811416 -0.07796924 -0.16280915 0.15835072 0.08587461 -0.0820173
-0.13072091 -0.18836084 0.11507655 0.088153005 0.10854975 -0.107014276 -0.11545045 0.07764923
-0.04608808 -0.024929894 0.10907272 0.10132277 -0.07746512 -0.13247499 -0.06867628 0.050933246
-0.11231789 0.12976053 0.02516904 0.07550313 0.15246214 -0.072158165 0.068161 -0.14562869
-0.06537966 -0.14888263 0.048912466 -0.14352036 -0.042745963 -0.2044649 -0.16390015 -0.05952224
0.06373852 -0.121586554 -0.12898408 0.034674566 0.013240635 0.13394125 -0.014583935 -0.17327182
0.18484677 0.1457164 -0.10011748 -0.08061175 -0.10660411 0.1589653 -0.16255172 -0.19239846
0.10351757 0.15108171 -0.015068107 -0.010782921 0.1277845 0.0092463475 0.10343299 0.18990834
0.050997682 -0.018546788 -0.0141339265 -0.09710621 0.06688853 -0.15282924 -0.12640075 0.059529502
-0.15557663 0.022724085 -0.037991162 -0.14569965 0.026009642 -0.11952816 -0.03564893 0.18545908

blocks.0.inception_modules.0.maxpool_conv.weight f4 [32, 7, 1]
00000000: 8f7d 83be 4645 19bd 83e3 b2be 5449 61be
00000010: 6148 ba3d 7968 98bc ef84 3b3e 1634 373e
00000020: ec40 783e 46c3 d23e 7291 313e eab2 723e
00000030: 1751 a0be a721 39bd 9c4d 573e d66d 5dbe
00000040: 1dd1 bf3e 802e 92be c451 25be db49 0f3e
00000050: 24c1 2bbe 6937 72bd ab1c a93e 21c1 bf3e
00000060: 2dda 61be 6d17 d13c 4b1f e7bd c7f7 9d3e
00000070: 143c 91bd da1e a8be 8350 8fbe f73e 503d
00000080: 3372 92be 0ff8 17be 118b 463e 2b6f 773e
00000090: a382 5f3e 3df3 c23e 3ac7 a0be d871 973e
000000a0: c05c b4bd 64fc 4b3e 5b4d dfbd f8bc 8fbe
000000b0: ea7a a7be d605 21be fb98 a63d 6202 4cbd
000000c0: d1ec 10be be4a 67be c6c7 903e a954 51be
000000d0: e95b c0be 1e9f 323e b0e2 6a3e 9473 8ebe
000000e0: 136e 9abe ffee 9fbd 372b 0f3e cf88 823e
000000f0: 0092 f33d 83d2 6e3e 38d7 49bc ddc7 debd
00000100: 00a5 a0be 250d 53be 84a2 acbd 588b fdbd
00000110: a19b 733d 7a43 93bd 20f9 ddbb ccab 03be
00000120: 5467 4ebd 3c7c b73b d7a8 903e 4c8b 07be
00000130: 732f 7b3e af34 52be 454f e53d 742f 30be
00000140: 85d5 d1bd 8f70 7fbe 79ce 39be 88d7 873e
00000150: 755a 23bd cc7f 873e 3269 993d 61ca 24be
00000160: 387f 3dbd f382 b9bd 2c94 a23e a3b3 fcbd
00000170: 6bdb 98be cb06 b43e 0354 84be 1bad afbc
00000180: fe8e 95be d2e8 a7be 7436 9ebe c5ba 4d3c
00000190: a019 c9be 69e3 093e 11f9 e3bd 5368 58bd
000001a0: 7d89 9abe 1dff b93d 0f19 c1be 0837 c9bc
000001b0: b136 d73d a75a 7e3e fcef 86be 7e94 4ebe
000001c0: 8121 bebe 927b 45be 846f 1a3e fd66 6c3e
000001d0: 03b4 5f3e 4af6 b03d 255e 7b3e 239f 103e
000001e0: 7562 a63d 15cd 6439 efa7 b03d 303b 343d
000001f0: c59d 62bd d8c6 173e fac9 453e 5ce9 b03e
00000200: 5484 8c3e 678d 943e 49ca 2f3e 32b1 25be
00000210: 4e56 33be 5044 78be 5a1c b2bd 9c0f 9ebd
00000220: e826 a8be 2987 ffbd 2c9a 513e 4f00 833e
00000230: 3ec6 d33c 8209 843e 609e 23bd 1b59 8cbe
00000240: 18f6 443e 4bdc 353b 4839 1fbe c193 403e
00000250: e6a7 c63e 6d32 443e 67d5 203d 893f 67bc
00000260: fa12 efba 6266 2a3d 2f6a 18be baf8 bdbe
00000270: 1c9e c0be 9629 bc3e 647f 8f3e e2ef 8e3e
00000280: d29e 14be a5f4 b93e 66ae 5abe fd97 4d3e
00000290: b497 5c3e 66ce a93e 4484 953e ace6 603d
000002a0: f498 59be 1aaa e03d 6830 c7bd fde8 e0be
000002b0: 1a76 633e 2e2f b33d e0d1 ca3d 3b13 af3e
000002c0: b348 3a3c bab1 83be 3b7d 883d bea0 88bc
000002d0: 1fa4 89be f067 1c3e a72e 87be 83b6 8c3e
000002e0: cf22 863d 0734 b7bd 6f55 433e 472c b0be
000002f0: 8997 23be 99ea 903e d972 653d 086d b8bd
00000300: 1ffc 923e 5e36 273e f237 05be b95d a9be
00000310: 271f 3b3e 31b8 3cbe e2f8 d2be 1293 7e3d
00000320: d5ad 75be 230d 833e c191 563c 8a09 c6bd
00000330: 8004 b3bd 5daa 123d 739e 3f3e 3e05 b13d
00000340: 2fbe babe 3aeb 92be fac5 b9be 6e7c 513e
00000350: c515 37be d921 c8be 4b04 30be 9336 823e
00000360: 6558 cebd 6866 5b3e bcce cc3d 82f3 803e
00000370: 1bac 223e 9885 1bbe 886f 8fbe 8c92 a2be
-0.2568173 -0.03741958 -0.34939203 -0.22000629 0.090958364 -0.018604504 0.18312429 0.17890963
0.24243516 0.41164607 0.17340639 0.23701063 -0.31311867 -0.04519811 0.210257 -0.2162393
0.37464228 -0.28551102 -0.16144472 0.13993017 -0.16772896 -0.059134874 0.33029684 0.37452033
-0.22055884 0.025523866 -0.112852655 0.30853102 -0.07091537 -0.32836038 -0.27991113 0.050841298
-0.28602752 -0.1484072 0.19388987 0.24163501 0.21827178 0.380762 -0.31401998 0.29579043
-0.08806753 0.19920498 -0.10903426 -0.2807386 -0.32710963 -0.15724882 0.081346475 -0.04980696
-0.14152838 -0.22587106 0.28277415 -0.20442452 -0.37570122 0.17443511 0.22938037 -0.27822554
-0.30162105 -0.07809257 0.13981329 0.25495002 0.11893082 0.23322491 -0.012319379 -0.10877965
-0.31375885 -0.20610483 -0.08429435 -0.12380093 0.05947459 -0.071906045 -0.006774083 -0.12858504
-0.05039151 0.0055995267 0.28253815 -0.13236731 0.24529819 -0.2052791 0.1119676 -0.17205602
-0.10245804 -0.24945281 -0.1814517 0.26531625 -0.03988119 0.2646469 0.074907675 -0.16092826
-0.046263903 -0.0905818 0.3175367 -0.123389505 -0.29854903 0.35161433 -0.25845346 -0.021444848
-0.29210657 -0.32794815 -0.3090092 0.012556736 -0.39277363 0.13465656 -0.1113149 -0.052833866
-0.3018302 0.09081862 -0.3771443 -0.024562374 0.105084784 0.24839269 -0.2635497 -0.20173833
-0.37134936 -0.1928542 0.15081602 0.23086162 0.21846013 0.08640726 0.24547632 0.14123206
0.08124248 0.00021820173 0.08625781 0.044001758 -0.055326242 0.14821947 0.19315329 0.3455304
0.27444708 0.2901413 0.1716701 -0.16180876 -0.17513391 -0.24244809 -0.08696814 -0.07717821
-0.32842183 -0.12476952 0.20468968 0.25586173 0.025851365 0.25788504 -0.03994596 -0.27411732
0.19234502 0.0027749713 -0.15549195 0.18806364 0.3879997 0.19159861 0.039266016 -0.014114269
-0.0018239908 0.041601546 -0.14884256 -0.37103826 -0.37620628 0.36750478 0.2802688 0.2791739
-0.1451371 0.3631946 -0.2135559 0.2007751 0.21542245 0.33165282 0.29202473 0.054907486
-0.21249753 0.10969944 -0.0972603 -0.43927756 0.22213021 0.08749233 0.09903312 0.3419436
0.011369872 -0.25721532 0.06664511 -0.01667821 -0.26883027 0.15274024 -0.2640278 0.27482995
0.06549608 -0.0894547 0.19075559 -0.3440878 -0.15975775 0.28303984 0.05601773 -0.09005171
0.28707978 0.16329333 -0.13009623 -0.33079317 0.18273602 -0.18429638 -0.41205508 0.062151976
-0.23992093 0.2559596 0.013096274 -0.09669788 -0.08741093 0.035807002 0.18712787 0.08643578
-0.36473224 -0.2869509 -0.36283857 0.20457622 -0.17879398 -0.39088324 -0.17189138 0.25432262
-0.10075454 0.21425784 0.10000369 0.25185782 0.15885966 -0.1518768 -0.2801478 -0.3175243

blocks.0.inception_modules.0.bn.weight f4 [192]
00000000: 5997 7d3f 3cb4 803f 3c14 773f aacd 813f
00000010: 2f6b 7f3f f2ec 703f 021e 7b3f f2a9 753f
00000020: 1034 813f e693 823f 6a67 833f c0af 763f
00000030: 58cc 863f 0f97 773f 8618 7c3f 75cc 813f
00000040: 8b50 763f 9927 813f e172 803f be54 843f
00000050: ff84 803f f682 753f c815 833f 404f 843f
00000060: 3e9d 803f bc98 7e3f d4fd 7d3f a806 7b3f
00000070: 6642 8a3f ef03 7e3f 577d 823f a34c 7a3f
00000080: 3d24 733f fb72 7b3f 40af 963f 8537 7a3f
00000090: 728e 743f 8d6b 7c3f 583b 7e3f 43fa 763f
000000a0: 6cc2 7f3f 0517 793f ec05 723f 93fe 783f
000000b0: 2c87 7c3f d077 783f caab 773f 2e60 873f
000000c0: 4086 793f 2966 803f 8316 713f 0d09 813f
000000d0: f565 713f 4587 763f cb24 803f 4f61 7e3f
000000e0: 21ca 803f 8843 803f 46c3 843f d2a1 893f
000000f0: 54bd 7e3f 159d 813f b760 793f aa0a 813f
00000100: 704c 7a3f 4ddf 713f 7f82 7b3f 5985 7d3f
00000110: 7f7d 823f f9ea 7e3f 2a1c 843f a2bf 763f
00000120: b094 833f 5d16 7e3f 13bc 833f 6459 7f3f
00000130: f5a8 753f f205 7b3f 92b3 843f 9a7b 833f
00000140: e8b3 7f3f ac28 813f 6df1 7f3f 5c87 853f
00000150: 027b 703f ae97 7d3f e037 763f 8b00 7a3f
00000160: db8f 833f a1be 753f 6ef4 6f3f 782f 853f
00000170: 626c 7b3f 3fe0 743f 1a14 783f 2f89 823f
00000180: 8d00 843f 4e8d 823f a0e1 853f b8df 763f
00000190: 11f2 803f c038 7e3f 0f53 813f b8e5 6e3f
000001a0: 946a 7e3f c307 7c3f 9505 823f 5668 813f
000001b0: 68f3 7f3f d977 7e3f 4aa6 883f ff72 793f
000001c0: 9fd7 793f ace3 7b3f 5906 803f 7daa 7f3f
000001d0: 2f28 853f 264f 813f ccd0 7e3f 41a6 883f
000001e0: c0ad 7d3f 6c8f 753f 0ffb 763f 0338 7e3f
000001f0: ee50 7c3f 2d67 7c3f 7f6e 753f b4eb 763f
00000200: 7ddf 7c3f 926f 7f3f 0420 7a3f 4fdf 803f
00000210: b960 7e3f 3e56 833f 78ab 793f ae19 883f
00000220: 6c01 823f a203 773f baa4 7e3f 8b71 783f
00000230: 225f 783f 5268 7d3f 7bd4 7b3f 6dee 803f
00000240: e98f 793f 8f14 7c3f cf87 803f 210b 8a3f
00000250: ef08 7a3f 8d91 7b3f 3d28 7d3f d4b2 803f
00000260: 01be 753f c1e0 883f 4eec 7c3f 7b96 813f
00000270: 8faf 763f f81f 7d3f a202 813f b755 823f
00000280: 9e89 813f d3d8 7f3f 6b00 7f3f 879d 8a3f
00000290: 4652 803f 8b1d 783f e27b 803f 6146 813f
000002a0: f079 7f3f a32e 7f3f e905 743f 9866 7b3f
000002b0: e010 813f c1e1 7b3f 1a73 873f a2df 7a3f
000002c0: a455 7e3f 3d2c 793f a98e 823f f870 843f
000002d0: 9a7b 7d3f c317 803f ee81 783f f094 743f
000002e0: 21f1 833f 85f4 7d3f 69ea 743f 6589 7b3f
000002f0: 59b7 7c3f 65f6 7a3f 09e2 803f 10a0 813f
0.99059063 1.0055003 0.9651525 1.0140889 0.99772924 0.9411155 0.98092663 0.9596244
1.0094013 1.0201385 1.0265934 0.96361923 1.0531111 0.9671487 0.9847492 1.014052
0.9621665 1.0090209 1.0035058 1.0338361 1.0040587 0.95902956 1.0241022 1.0336685
1.0047987 0.99451804 0.99215436 0.9805703 1.0801513 0.9922475 1.0194501 0.9777319
0.9497717 0.9822232 1.1772232 0.97740966 0.95529854 0.9860161 0.993093 0.9647562
0.9990604 0.9730075 0.94540286 0.9726345 0.98643756 0.9705782 0.96746504 1.0576227
0.97470474 1.0031177 0.94174975 1.0080887 0.942962 0.96300155 1.0011228 0.9936723
1.0061685 1.0020609 1.0372093 1.0752509 0.9950764 1.0126063 0.974132 1.008138
0.97772884 0.94481355 0.98245996 0.990316 1.0194548 0.9957729 1.0321095 0.9638616
1.0279751 0.99252874 1.0291771 0.99745774 0.9596093 0.98055947 1.03673 1.0272095
0.9988389 1.0090537 0.9997776 1.0431933 0.93937695 0.9905957 0.9617901 0.9765708
1.0278276 0.95994 0.93732345 1.0405111 0.98212254 0.9565467 0.9690567 1.0198115
1.0312668 1.0199373 1.045948 0.9643512 1.0073873 0.99305344 1.0103472 0.93319273
0.99381375 0.98449343 1.0157954 1.0109966 0.99980783 0.99401623 1.0675747 0.97441095
0.97594637 0.98394275 1.0001937 0.9986952 1.0402888 1.0102279 0.9953735 1.0675737
0.99093246 0.9592197 0.96476835 0.9930422 0.9856099 0.98594934 0.9587173 0.96453404
0.98778516 0.9977962 0.977051 1.0068148 0.9936634 1.0260694 0.97527266 1.0632837
1.0156684 0.9648992 0.994701 0.9704825 0.9702016 0.98987305 0.98371094 1.0072762
0.97485214 0.9846887 1.0041445 1.0784646 0.9766988 0.9826897 0.98889524 1.0054574
0.9599305 1.069359 0.9879807 1.0124048 0.9636163 0.98876905 1.0078928 1.0182408
1.0120122 0.9994022 0.9961001 1.0829324 1.0025108 0.9692008 1.0037806 1.0099603
0.99795437 0.99680537 0.9532152 0.9820342 1.0083275 0.9839135 1.0582001 0.97997487
0.9934943 0.9733313 1.0199786 1.0346975 0.99016726 1.0007252 0.97073257 0.9553976
1.0307962 0.9920123 0.9567018 0.9825652 0.98717266 0.9803222 1.006898 1.0126972
